model/model.pth (torch_old, 559679 bytes, 14 tensors)

rnn_encoder.weight_ih_l0 f4 [512, 35]
0.19490713 0.06816506 0.05241459 0.06513374 0.16043378 0.058646657 0.11365306 -0.050897777
-0.14184694 0.09736023 0.047303345 0.04639386 0.13249528 0.13305116 0.1400035 0.02885612
-0.011825174 0.03729351 -0.062874496 -0.12019081 -0.016456397 0.059447184 -0.20359544 -0.079621814
-0.15561524 -0.2250795 -0.22835383 -0.1454872 -0.25094604 0.06868673 -0.030394137 0.14892198
0.04068918 0.06801818 -0.013324724 0.15387425 0.08913637 -0.14669505 -0.042424962 -0.13292156
0.11737541 0.07163453 -0.018973937 0.008335864 0.029484112 0.051644895 0.022988934 -0.16489182
-0.25271177 -0.17123549 -0.16705804 -0.037194733 -0.21923697 -0.099642865 -0.13433757 0.1732865
-0.13284205 0.04710004 0.05726163 0.13811263 -0.024111314 -0.013976254 0.07245392 -0.05187604
-0.07021527 -0.057117872 -0.036306735 -0.05936494 -0.053866316 0.092734165 0.30658907 -0.004146794
-0.091234274 -0.028536137 -0.4584373 0.05401541 -0.15424477 0.064166136 0.11889923 -0.13843116
-0.055777054 -0.06973512 -0.13488528 -0.057305615 -0.06271979 0.08050198 -0.027936218 0.08574461
0.035829704 -8.224754e-05 0.0712836 -0.044298377 0.046507273 -0.047115587 0.017201511 0.016143316
0.061413113 0.086136416 -0.23247829 0.075053535 -0.06719899 -0.042889558 0.054881327 0.0070800893
0.0201055 0.24741669 0.16455531 0.0032272225 -0.05180274 -0.39924815 0.061638743 0.045665976
-0.0066989684 -0.025292521 0.044998754 0.13623092 0.09678959 -0.15574463 -0.17977479 -0.011371076
-0.0047940663 -0.059712682 -0.1978479 -0.1741913 -0.038318675 -0.09219316 -0.12834156 0.03441323
-0.15769228 0.12597196 0.0033933364 -0.025025323 0.09918283 -0.055374224 0.015114587 -0.086269155
-0.04371947 0.0161495 -0.01801994 -0.059179634 0.15896524 -0.05032499 0.22864464 -0.14729123
0.052500498 0.22090821 -0.032383658 0.049569607 0.097501285 -0.13563375 -0.05939365 -0.049528845
-0.0136746885 0.16530938 -0.12510046 0.07490518 0.21333916 0.22904609 0.16658783 -0.11874984
0.006416779 -0.01500822 0.0102161085 -0.0444958 -0.21394654 0.028430093 -0.16521198 -0.16343759
-0.19407983 0.07052616 -0.11406787 0.19319218 0.03515384 -0.0964979 0.10540206 0.15330042
0.08059669 -0.00954518 0.03184305 0.25614908 -0.08404364 0.08012689 -0.073411606 -0.0712683
0.12012015 0.10950798 0.14864592 0.101664536 0.05574457 0.1590643 -0.06534602 -0.021013787
-0.11640569 -0.08928229 -0.120165594 -0.15884739 0.054462306 0.083597064 -0.14961693 -0.078940526
-0.12814072 0.08574149 0.09113774 -0.024147438 -0.07061876 -0.14154668 0.060597807 -0.008629003
-0.109250635 0.069907926 0.2684128 -0.14094003 -0.033118527 -0.018063374 -0.3557101 0.10243255
-0.07009922 0.11614598 0.08851264 -0.13205771 0.002423675 -0.12164651 -0.060278624 0.05995777
-0.09304667 0.08502307 0.0957059 0.14509647 0.15654732 -0.0116583705 0.06302248 -0.109988965
0.11264582 -0.0136189815 0.00051245705 0.061308898 -0.07359648 0.08702349 -0.037329305 0.075122595
-0.042610846 0.013816706 0.08138305 -0.014728232 -0.06977477 0.21669632 0.014433919 -0.0008750638
-0.18733789 -0.14701109 0.08424631 -0.15261894 0.23311344 0.2331423 -0.20519982 -0.025278889
00000000: bc95 473e 1f9a 8b3d aeb0 563d d764 853d
00000010: c148 243e 7a37 703d efc2 e83d 307a 50bd
00000020: 5340 11be cd64 c73d 27c1 413d 7d07 3e3d
00000030: d8ac 073e 903e 083e 145d 0f3e ab63 ec3c
00000040: 60be 41bc 14c1 183d 58c4 80bd 9926 f6bd
00000050: 91cf 86bc e47e 733d 537b 50be c310 a3bd
00000060: 9a59 1fbe 3e7b 66be 96d5 69be 99fa 14be
00000070: 007c 80be a1ab 8c3d 20fd f8bc 017f 183e
00000080: b3a9 263d 1e4d 8b3d f14f 5abc 3691 1d3e
00000090: 218d b63d 3a37 16be ccc5 2dbd 971c 08be
000000a0: 8562 f03d 20b5 923d 3b6f 9bbc 2693 083c
000000b0: aa88 f13c 9989 533d 4a53 bc3c 67d9 28be
000000c0: 7063 81be 5b58 2fbe 4311 2bbe 8159 18bd
000000d0: a87f 60be 8f11 ccbd ca8f 09be 0472 313e
000000e0: bf07 08be f9eb 403d 2c8b 6a3d 666d 0d3e
000000f0: 1785 c5bc a8fc 64bc b962 943d f87b 54bd
00000100: 06cd 8fbd 6ef4 69bd 5fb6 14bd a728 73bd
00000110: eda2 5cbd 69eb bd3d 3ef9 9c3e d4e1 87bb
00000120: 09d9 babd 9ec4 e9bc 4bb8 eabe 433f 5d3d
00000130: 57f2 1dbe 8969 833d 7181 f33d e6c0 0dbe
00000140: 7b76 64bd 49d1 8ebd 5e1f 0abe 4bb9 6abd
00000150: 3c73 80bd 39de a43d 7fda e4bc df9a af3d
00000160: 2bc2 123d 507c acb8 23fd 913d 3772 35bd
00000170: 697e 3e3d 46fc 40bd 2fea 8c3c fd3e 843c
00000180: 518c 7b3d 4a68 b03d ca0e 6ebe abb5 993d
00000190: a09f 89bd f6ac 2fbd 3ecb 603d 1800 e83b
000001a0: 4ab4 a43c cd5a 7d3e 3081 283e cf7f 533b
000001b0: 1c2f 54bd 416a ccbe e878 7c3d 3f0c 3b3d
000001c0: 0583 dbbb 4332 cfbc 9d50 383d 1e80 0b3e
000001d0: 9f39 c63d 857b 1fbe e216 38be c04d 3abc
000001e0: 8b17 9dbb 4995 74bd a498 4abe 345f 32be
000001f0: 0bf4 1cbd c4cf bcbd f86b 03be e3f4 0c3d
00000200: 167a 21be cbfe 003e bd62 5e3b e801 cdbc
00000210: 5e20 cb3d 15d0 62bd 2ca3 773c e2ad b0bd
00000220: 3013 33bd f54b 843c 8e9e 93bc 5866 72bd
00000230: c9c7 223e 9421 4ebd d221 6a3e 83d3 16be
00000240: c30a 573d c335 623e baa4 04bd 8009 4b3d
00000250: c1ae c73d 93e3 0abe c246 73bd c2de 4abd
00000260: cd0b 60bc dd46 293e 561a 00be e367 993d
00000270: 9575 5a3e 0f8b 6a3e 0096 2a3e 1e33 f3bd
00000280: d843 d23b 0ae5 75bc 7761 273c 3a41 36bd
00000290: cd14 5bbe 3ae6 e83c 542d 29be 2f5c 27be
000002a0: ddbc 46be 0570 903d 6a9c e9bd 2cd4 453e
000002b0: 79fd 0f3d b1a0 c5bd 09dd d73d c9fa 1c3e
000002c0: e10f a53d 6363 1cbc dc6d 023d f925 833e
000002d0: 121f acbd 9119 a43d d358 96bd 1df5 91bd
000002e0: 8e01 f63d b845 e03d a336 183e 7f35 d03d
000002f0: 6b54 643d c0e1 223e 22d4 85bd 1b25 acbc
00000300: 1b66 eebd a2d9 b6bd 6119 f6bd e4a8 22be
00000310: de13 5f3d f034 ab3d 2e35 19be 92ab a1bd
00000320: 5237 03be 3c99 af3d 6ca6 ba3d d9d0 c5bc
00000330: 92a0 90bd 9df1 10be 6835 783d a960 0dbc
00000340: ccbe dfbd e32b 8f3d 676d 893e 9552 10be
00000350: 4ba7 07bd a4f9 93bc a21f b6be 28c8 d13d
00000360: 2e90 8fbd f2dd ed3d 1d46 b53d 233a 07be
00000370: 85d6 1e3b ce21 f9bd b8e6 76bd 4796 753d
00000380: 418f bebd 9320 ae3d 7401 c43d 2b94 143e
00000390: f14d 203e c002 3fbc ee11 813d e541 e1bd
000003a0: dab2 e63d 2622 5fbc 6956 063a 0a1f 7b3d
000003b0: c0b9 96bd 5f39 b23d 9de6 18bd e0d9 993d
000003c0: b688 2ebd 775f 623c 28ac a63d af4e 71bc
000003d0: 13e6 8ebd a4e5 5d3e 3f7c 6c3c 8a64 65ba
000003e0: 81d5 3fbe 138a 16be 5489 ac3d 2448 1cbe
000003f0: 4ab5 6e3e dbbc 6e3e e71f 52be ac15 cfbc

rnn_encoder.weight_hh_l0 f4 [512, 128]
0.06541929 0.019856371 0.031904172 -0.0461858 0.101438485 -0.044577543 0.03447728 -0.096742555
-0.100424126 0.10498561 -0.0034517602 -0.037929147 -0.06647403 -0.013720226 0.0073063322 -0.060177986
0.087585375 -0.08817727 0.056762643 0.06047679 -0.0067029805 -0.08824774 -0.075216524 -0.03374042
0.06339827 -0.067984916 0.0035228827 -0.093929425 0.06141833 0.0057966984 -0.008490504 -0.08113707
-0.14319251 -0.05698742 -0.02006282 -0.093919806 -0.1142674 0.009782469 -0.08110927 0.0161918
-0.13513876 0.060429066 0.03623728 -0.030962503 0.08626396 -0.0075553083 0.03194244 0.094498895
0.080099545 0.087403886 -0.14094406 0.09660998 -0.04701618 -0.082120165 0.0434097 0.11621877
-0.10572858 -0.07540847 -0.052561328 0.038415674 -0.015652675 -0.080059685 0.0767454 -0.036847968
-0.005796597 -0.06906669 0.03539995 -0.09101262 -0.09717851 0.026990037 -0.018566389 0.039801214
-0.070736066 -0.058822222 -0.028868154 0.012539797 -0.031883806 0.07157246 -0.11602268 -0.023734896
0.12169605 -0.016963834 0.06903093 -0.12832396 -0.107040755 0.0036101185 -0.114313416 -0.060652427
0.040490475 -0.09624363 0.082831435 0.09406198 -0.019006882 0.0088123 0.091733925 0.002406247
-0.10601152 0.012285998 0.07197411 0.046947252 -0.070406765 -0.057211265 0.08303882 0.102927044
0.03126591 0.043993138 -0.030433621 0.08257043 -0.0010951444 0.036250852 -0.09735535 -0.009211224
-0.091455504 -0.14057077 -0.01650811 0.107255936 0.040823996 0.035580587 -0.0147024095 0.012784769
0.037697777 0.10169287 -0.04040286 -0.087084174 0.18323794 -0.06458354 -0.02477804 -0.10559057
-0.091318 0.010207498 -0.011938398 -0.016018683 -0.019398721 0.07065997 -0.105127856 -0.012104218
0.11330394 -0.063419275 -0.102783136 0.013718103 -0.03029735 0.0018436098 0.06580881 0.027953131
0.019417156 -0.054228798 -0.020654352 -0.062327497 0.13014615 0.036175042 -0.008113471 -0.009023565
-0.012806138 -0.012683513 0.08889891 0.0029572474 0.045683872 -0.08434156 0.078313045 0.006129714
-0.005811533 0.0035654185 0.012825099 -0.10667375 -0.0785651 0.022075828 -0.09643406 0.0034948757
-0.018508766 0.0011068188 -0.014545923 -0.049754456 -0.025078945 0.016425999 0.012797969 -0.018281091
-0.11461009 0.011899194 -0.067252696 -0.049087033 -0.014021617 -0.060020544 0.012060303 -0.024126818
0.002170634 -0.050634485 0.069333375 0.024898507 -0.09287087 -0.09136728 0.071177095 0.01282066
0.02068524 0.04252343 0.06620517 0.06661762 0.03462356 0.029952206 0.05498844 0.113654666
0.11116265 0.034199893 -0.039563235 0.06074903 0.016016888 -0.05919842 -0.046021305 -0.08475541
-0.040914122 0.024511855 -0.047539238 0.06860613 -0.11329573 0.12206318 0.08615764 -0.08995371
0.01816199 -0.018827658 0.042944748 -0.022571612 -0.09621521 0.026545059 -0.12066221 -0.04978286
-0.043991357 0.03753444 -0.12587774 0.11978778 0.06650919 -0.0512047 -0.06841472 -0.09992247
0.0486201 -0.03875036 -0.059186045 -0.052011125 0.04042371 0.054045156 0.05963754 0.023857653
-0.041141912 0.06636619 0.009427133 -0.16875337 -0.03647716 0.07017493 -0.09187683 0.09708006
0.1127796 0.05916791 -0.11861997 0.0179193 -0.18829156 -0.0034404225 -0.0008644761 0.010163848
00000000: 8cfa 853d d4a9 a23c f3ad 023d 522d 3dbd
00000010: fbbe cf3d f196 36bd 0c38 0d3d f620 c6bd
00000020: 2aab cdbd b202 d73d ed36 62bb 985b 1bbd
00000030: 8923 88bd ccca 60bc f569 ef3b 317d 76bd
00000040: f65f b33d 4996 b4bd f27f 683d 83b6 773d
00000050: ada4 dbbb 3bbb b4bd 1f0b 9abd 6533 0abd
00000060: f4d6 813d ad3b 8bbd 2ae0 663b 125e c0bd
00000070: c991 7b3d 3bf2 bd3b c11b 0bbc 312b a6bd
00000080: 0fa1 12be a46b 69bd c85a a4bc 0759 c0bd
00000090: 0705 eabd a646 203c 9e1c a6bd aaa4 843c
000000a0: d161 0abe 7884 773d 8b6d 143d 13a5 fdbc
000000b0: 29ab b03d 8592 f7bb 13d6 023d a388 c13d
000000c0: 3b0b a43d cf00 b33d a453 10be 74db c53d
000000d0: 0a94 40bd 9e2e a8bd 5fce 313d 1b04 ee3d
000000e0: 3a88 d8bd c26f 9abd 8c4a 57bd c159 1d3d
000000f0: 0a3a 80bc 55f6 a3bd b12c 9d3d e5ed 16bd
00000100: 61f1 bdbb d672 8dbd 8aff 103d d364 babd
00000110: 8705 c7bd 361a dd3c 8a18 98bc 9906 233d
00000120: 12de 90bd 92ef 70bd e87c ecbc b973 4d3c
00000130: 9898 02bd 9594 923d 4d9d edbd af6f c2bc
00000140: c73b f93d bdf7 8abc 1760 8d3d 5b67 03be
00000150: 2f38 dbbd bd97 6c3b 271d eabd ae6e 78bd
00000160: 57d9 253d 611b c5bd 87a3 a93d 91a3 c03d
00000170: 52b4 9bbc 7761 103c ffde bb3d 20b2 1d3b
00000180: 911c d9bd 364b 493c 2a67 933d c34b 403d
00000190: 6c31 90bd 5c56 6abd 4210 aa3d 6acb d23d
000001a0: af10 003d 2632 343d ee4f f9bc b01a a93d
000001b0: f38a 8fba c67b 143d 3e62 c7bd acea 16bc
000001c0: 064d bbbd c9f1 0fbe 043c 87bc 00a9 db3d
000001d0: 1037 273d f3bc 113d 60e2 70bc 3577 513c
000001e0: fc68 1a3d 5a44 d03d 787d 25bd 3059 b2bd
000001f0: baa2 3b3e 6044 84bd 51fb cabc de3f d8bd
00000200: ee04 bbbd 5a3d 273c 4599 43bc 9d39 83bc
00000210: 11ea 9ebc 2db6 903d 464d d7bd c550 46bc
00000220: e50b e83d f7e1 81bd f77f d2bd e5c1 603c
00000230: 2632 f8bc 48a5 f13a c5c6 863d f7fd e43c
00000240: ba10 9f3c 041f 5ebd 5133 a9bc 1e4b 7fbd
00000250: 0845 053e 482c 143d 5dee 04bc 93d7 13bc
00000260: d6d0 51bc 82ce 4fbc a210 b63d 61ce 413b
00000270: 031f 3b3d 45bb acbd 9762 a03d c5db c83b
00000280: ac6e bebb cca9 693b 5d20 523c c477 dabd
00000290: bde6 a0bd 5ed8 b43c 387f c5bd 490a 653b
000002a0: b29f 97bc ad12 913a 0652 6ebc 54cb 4bbd
000002b0: 5c72 cdbc d18f 863c 93ae 513c 3ac2 95bc
000002c0: b2b8 eabd d6f4 423c c8bb 89bd 7c0f 49bd
000002d0: edba 65bc 1ad8 75bd 9498 453c 9ba5 c5bc
000002e0: 3241 0e3b 1b66 4fbd a8fe 8d3d f4f7 cb3c
000002f0: 1533 bebd c51e bbbd 4cc5 913d bf0d 523c
00000300: 1874 a93c 0c2d 2e3d 9396 873d d26e 883d
00000310: 6fd1 0d3d 545e f53c 8f3b 613d c7c3 e83d
00000320: 3ea9 e33d 3015 0c3d 0f0d 22bd fad3 783d
00000330: d935 833c 0b7a 72bd d680 3cbd 3f94 adbd
00000340: 9195 27bd 16cd c83c 81b8 42bd 5f81 8c3d
00000350: 9707 e8bd 43fc f93d 6b73 b03d a739 b8bd
00000360: 74c8 943c 763c 9abc d5e6 2f3d 1ae8 b8bc
00000370: 7b0c c5bd 0675 d93c c01d f7bd 1de9 4bbd
00000380: 4830 34bd b7bd 193d 18e6 00be 4c53 f53d
00000390: f835 883d 05bc 51bd 041d 8cbd 27a4 ccbd
000003a0: df25 473d b3b8 1ebd 116d 72bd 9e09 55bd
000003b0: 5593 253d 745e 5d3d 7e46 743d 2071 c33c
000003c0: 6c84 28bd ffea 873d 4374 1a3c afcd 2cbe
000003d0: 1369 15bd e0b7 8f3d eb29 bcbd e9d1 c63d
000003e0: fef8 e63d 0d5a 723d 07ef f2bd 7fcb 923c
000003f0: 81cf 40be b678 61bb 029e 62ba 4586 263c

rnn_encoder.bias_ih_l0 f4 [512]
0.24776213 0.21210851 0.16036531 0.12261509 0.27261508 0.2897651 0.17079964 0.120368205
0.25032938 0.26179487 0.29694182 0.16764778 0.17170331 0.11059495 0.15986785 0.15159696
0.14834084 0.28350985 0.21218567 0.22107351 0.23531774 0.20414805 0.21690327 0.14263912
0.26950082 0.13599817 0.21999699 0.113330044 0.27908882 0.1865923 0.22712164 0.27124554
0.12055669 0.20813757 0.19091684 0.14578521 0.21957093 0.25531176 0.11052124 0.2354773
0.17346741 0.19305772 0.27390626 0.16738573 0.29020825 0.1221684 0.27284613 0.25803605
0.17474137 0.14119095 0.36436146 0.22899462 0.15073952 0.17180358 0.083201185 0.17142542
0.22497183 0.19338875 0.27413777 0.29408163 0.25170833 0.14766455 0.11336808 0.15042815
0.29807603 0.19890432 0.18395764 0.13450249 0.14698665 0.16902985 0.20065935 0.38181198
0.23277405 0.18779305 0.25703502 0.24925244 0.24858434 0.25312412 0.3012769 0.15359098
0.21558318 0.28063005 0.27486563 0.11526291 0.29299304 0.2066527 0.27606443 0.12861803
0.12252674 0.26357412 0.26385003 0.23336415 0.21959734 0.25441486 0.28318286 0.15960342
0.22990017 0.25751698 0.30724913 0.22577457 0.16431735 0.23388134 0.35065302 0.24138276
0.25779483 0.20198575 0.21950963 0.21782897 0.14550416 0.37599862 0.2072673 0.15542273
0.17897606 0.1328414 0.2622977 0.33574563 0.29814947 0.3337317 0.24705215 0.36411285
0.07658086 0.20423412 0.05188004 0.16523285 0.1232019 0.33079672 0.29244453 0.12783442
0.106361456 0.08908388 0.08065145 0.090851314 -0.0024168068 -0.031445783 0.10449398 -0.04791452
0.20323358 0.13487735 0.14076938 0.10652405 0.024062121 0.08926726 0.018309752 -0.0063039465
0.0255829 0.09048901 0.054608792 0.09714818 0.099164546 0.09897019 0.0070552737 -0.03247919
0.102080636 0.04507649 0.042723343 0.055757985 0.07790578 0.08363057 0.047794696 0.08941988
0.0774639 0.019672213 -0.028003946 0.0019686753 0.0186396 0.098545946 -0.018415902 -0.031689342
0.07255852 0.03851744 0.012919594 0.012064584 -0.016053518 0.13397083 -0.007945882 -0.013176721
0.014175219 0.1172245 -0.006118534 -0.021513646 0.0567349 0.07758757 0.15300678 -0.0042389096
0.1136337 0.082772955 0.014874968 0.08574122 -0.035775766 0.038285013 0.007370151 0.036618363
-0.016965056 -0.022036286 0.008515886 -0.011797851 0.11223706 0.040215634 0.072426334 0.009557457
0.049440097 0.026280474 -0.015750876 0.045984622 0.05580046 -0.007158367 0.047304347 0.080856994
0.04068501 0.07163465 0.016225308 0.05769946 0.059218254 -0.0045100604 0.087864764 -0.02116268
0.043239754 0.0708333 0.024140038 0.14122118 -0.020571182 0.0887819 -0.024503326 -0.0038005915
0.054715417 0.13501725 0.02739706 0.13979301 0.102248386 0.034970243 0.03250362 -0.03301555
0.106146544 0.04712449 0.10871881 0.1539587 0.07784303 -0.03837829 0.037316028 0.0538068
0.1401273 0.080153406 -0.09169762 0.10497957 -0.008358955 0.030037127 -0.019450862 -0.0789446
0.060367808 -0.02615775 0.010458858 -0.032010462 0.17155033 0.10565357 -0.039505452 0.11816729
00000000: 5bb5 7d3e f932 593e ce36 243e 9f1d fb3d
00000010: 3494 8b3e 175c 943e 1ae6 2e3e 9b83 f63d
00000020: 2c2b 803e fa09 863e c208 983e dcab 2b3e
00000030: fed2 2f3e 9b7f e23d 66b4 233e 3c3c 1b3e
00000040: a9e6 173e 3428 913e 3347 593e 1861 623e
00000050: 22f7 703e 300c 513e e41b 5e3e fd0f 123e
00000060: 03fc 893e 1b43 0b3e e446 613e 9519 e83d
00000070: bbe4 8e3e 0d12 3f3e 9392 683e b2e0 8a3e
00000080: 6de6 f63d 0422 553e b47f 433e b848 153e
00000090: 34d7 603e 39b8 823e f658 e23d f620 713e
000000a0: 71a1 313e ecb0 453e 713d 8c3e 2a67 2b3e
000000b0: 2d96 943e 6d33 fa3d 7db2 8b3e 4d1d 843e
000000c0: 67ef 323e 5c94 103e 968d ba3e 917d 6a3e
000000d0: 765b 1a3e 47ed 2f3e 6265 aa3d 258a 2f3e
000000e0: 045f 663e b307 463e c95b 8c3e de91 963e
000000f0: eadf 803e 6035 173e 862d e83d d609 1a3e
00000100: 6c9d 983e 93ad 4b3e 645f 3c3e 05bb 093e
00000110: ab83 163e 2916 2d3e a579 4d3e dc7c c33e
00000120: 525c 6e3e d24c 403e 189a 833e 083c 7f3e
00000130: e58c 7e3e 7c99 813e f740 9a3e f446 1d3e
00000140: d6c1 5c3e beae 8f3e 30bb 8c3e f60e ec3d
00000150: 2f03 963e c49c 533e 5158 8d3e 72b4 033e
00000160: 4def fa3d 30f3 863e 5a17 873e 03f7 6e3e
00000170: 20de 603e aa42 823e 58fd 903e 146f 233e
00000180: f36a 6b3e 44d9 833e c24f 9d3e 7331 673e
00000190: cf42 283e 977e 6f3e cb88 b33e 0b2d 773e
000001a0: affd 833e 5ad5 4e3e 22c7 603e 8f0e 5f3e
000001b0: 0bff 143e e482 c03e e13d 543e 2327 1f3e
000001c0: 8045 373e 9307 083e e24b 863e dae6 ab3e
000001d0: 0ca7 983e e2de aa3e 3dfb 7c3e 006d ba3e
000001e0: 6dd6 9c3d c022 513e 2a80 543d cd32 293e
000001f0: 4751 fc3d 305e a93e 4abb 953e 07e7 023e
00000200: 09d4 d93d 9c71 b63d 962c a53d 4110 ba3d
00000210: 4a63 1ebb 4bcd 00bd f100 d63d 0442 44bd
00000220: 771c 503e 4a1d 0a3e d925 103e 4829 da3d
00000230: ed1d c53c c1d1 b63d 55fe 953c 5691 cebb
00000240: 3b93 d13c 4d52 b93d 78ad 5f3d a0f5 c63d
00000250: c816 cb3d e2b0 ca3d ed2f e73b e608 05bd
00000260: a70f d13d 20a2 383d acfe 2e3d 7c62 643d
00000270: 118d 9f3d 8146 ab3d 5fc4 433d c521 b73d
00000280: 65a5 9e3d 9f27 a13c 8868 e5bc e404 013b
00000290: 13b2 983c 75d2 c93d f2dc 96bc afcc 01bd
000002a0: 9099 943d 77c4 1d3d b4ac 533c 88aa 453c
000002b0: ab82 83bc a62f 093e 722f 02bc 2ce3 57bc
000002c0: 2e3f 683c 6613 f03d fc7d c8bb 633d b0bc
000002d0: db62 683d 3be6 9e3d cfad 1c3e 8de6 8abb
000002e0: c9b8 e83d de84 a93d 23b6 733c 1899 af3d
000002f0: 9c89 12bd bfd0 1c3d 4f81 f13b 23fd 153d
00000300: 4dfa 8abc 7185 b4bc 3786 0b3c c64b 41bc
00000310: 8bdc e53d 26b9 243d 4254 943d e196 1c3c
00000320: b381 4a3d 264a d73c fb07 81bc 5f5a 3c3d
00000330: 068f 643d bc90 eabb 34c2 413d 5a98 a53d
00000340: 53a5 263d 30b5 923d f0ea 843c 4556 6c3d
00000350: d78e 723d 21c9 93bb 71f2 b33d 5b5d adbc
00000360: 2b1c 313d 0d11 913d 54c1 c53c 499c 103e
00000370: e584 a8bc 49d3 b53d 33bb c8bc 5813 79bb
00000380: 461d 603d f641 0a3e cd6f e03c e625 0f3e
00000390: 9a67 d13d f53c 0f3d 8422 053d 503b 07bd
000003a0: 5c63 d93d 9c05 413d f8a7 de3d 59a7 1d3e
000003b0: 2b6c 9f3d 8e32 1dbd b1d8 183d 8564 5c3d
000003c0: 887d 0f3e 7827 a43d f6cb bbbd 87ff d63d
000003d0: 00f4 08bc 6c10 f63c 6a57 9fbc b5ad a1bd
000003e0: 3c44 773d c748 d6bc a15b 2b3c 671d 03bd
000003f0: e4aa 2f3e e660 d83d 78d0 21bd b101 f23d

rnn_encoder.bias_hh_l0 f4 [512]
0.26278237 0.1866614 0.14392094 0.13679801 0.2561544 0.14912196 0.17295414 0.13442953
0.37479463 0.18672548 0.311698 0.25933984 0.18449013 0.19167247 0.12453796 0.29175797
0.11894958 0.24467278 0.1251795 0.15467222 0.15142867 0.2545961 0.17323893 0.12056327
0.2585213 0.23644468 0.23876442 0.11139502 0.21796174 0.115299724 0.3005568 0.25782138
0.27855012 0.22734892 0.15960653 0.28430492 0.30593538 0.19453503 0.20312728 0.12861109
0.18944128 0.16354449 0.39063478 0.104059875 0.27047583 0.2865088 0.28326938 0.23418467
0.23688133 0.21752638 0.30339536 0.30570552 0.16536155 0.23377095 0.067732126 0.18320179
0.30533406 0.24714799 0.2797645 0.18483943 0.26236075 0.13190736 0.24048552 0.08950231
0.23439763 0.12550788 0.3044567 0.102680236 0.16962345 0.16276266 0.14831305 0.24634098
0.19008845 0.25055236 0.12153724 0.16279013 0.3132635 0.24298659 0.36393753 0.16351508
0.3601096 0.13717264 0.37121135 0.26763144 0.21260709 0.123653114 0.22272249 0.075631805
0.14063372 0.25456962 0.28060913 0.1869494 0.26180592 0.29894918 0.13376573 0.22767319
0.26828766 0.3492241 0.18964882 0.2549418 0.09558592 0.21864629 0.24336179 0.08279467
0.23065074 0.12511171 0.21981163 0.35198098 0.17074051 0.3347318 0.29401487 0.2244957
0.14831066 0.13931462 0.27401826 0.3880792 0.35217714 0.26793355 0.20981358 0.24529737
0.09567866 0.19723518 0.19078667 0.12307225 0.1883541 0.24102983 0.13517623 0.107308336
0.010461025 -0.009882186 0.078964785 -0.013192991 0.10281396 0.014555136 0.032357775 -0.013272201
0.09579262 0.14277439 0.13788098 -0.004867346 -0.055833884 -0.02630089 -0.026906408 0.07176723
-0.019074641 0.02722177 0.054703087 0.08537634 0.0013437662 0.03458241 0.03828003 -0.028768912
0.08161323 0.06730566 0.12210167 0.011246578 0.110492624 0.09339954 0.020945655 0.06509987
-0.013506987 0.112674505 0.07516518 0.02617359 0.118445806 0.023053614 -0.015290005 0.08119592
0.010363656 0.13527443 -0.0019755897 0.080744766 -0.046003748 0.033574328 0.06321945 0.008654373
0.116218366 -0.0112492815 0.07170693 -0.030648936 -0.01730842 -0.08334262 0.0037670385 0.037552595
-0.011137891 0.088912174 -0.038492125 0.1099824 0.08018598 0.0056563243 0.023274457 0.09159602
-0.01865268 0.074744076 -0.006548354 0.08942073 0.044422228 0.17484894 0.08288708 0.109080255
-0.036555134 -0.06402209 0.11713386 0.09625765 0.11768754 0.075496554 0.13669908 0.09855831
0.057554822 -0.03892223 0.026182897 0.07844193 0.028781464 0.13019657 0.09484943 0.10890371
0.08141161 0.062010065 -0.0035504287 0.0442263 0.11119091 0.027929096 -0.017511234 0.06001847
0.043369476 0.08254613 0.015858294 0.050558336 -0.061507512 0.0039808345 0.11504773 0.026384959
0.09161292 -0.022804733 0.10616136 0.15003954 0.080880575 -0.041389693 0.0342707 0.0034475033
0.045703575 0.11639095 -0.11098781 0.09111666 0.036222883 -0.022462826 -0.022115288 -0.059323266
0.030211732 -0.00032448606 -0.0010854003 0.02161861 0.1513201 0.079123095 0.056209534 0.0562099
00000000: 698b 863e 2b24 3f3e 0360 133e c714 0c3e
00000010: ab26 833e 6db3 183e e41a 313e e5a7 093e
00000020: 15e5 bf3e f734 3f3e e196 9f3e 31c8 843e
00000030: fbea 3c3e ca45 443e c20d ff3d 4d61 953e
00000040: d69b f33d 808b 7a3e 0e2f 003e 6562 1e3e
00000050: 1e10 1b3e 6c5a 823e 8c65 313e e0e9 f63d
00000060: e75c 843e 8e1e 723e a97e 743e 1223 e43d
00000070: 5d31 5f3e 4322 ec3d 95e2 993e 2a01 843e
00000080: 1f9e 8e3e 28ce 683e e56f 233e 6a90 913e
00000090: 90a3 9c3e 3134 473e 9900 503e a0b2 033e
000000a0: e5fc 413e 3578 273e 4801 c83e 581d d53d
000000b0: cf7b 8a3e 48b1 923e af08 913e 1bce 6f3e
000000c0: 0591 723e 3cbf 5e3e a356 9b3e 6f85 9c3e
000000d0: 8a54 293e a761 6f3e 24b7 8a3d 4099 3b3e
000000e0: bf54 9c3e 5d14 7d3e 4b3d 8f3e 8c46 3d3e
000000f0: 2654 863e b912 073e d641 763e fd4c b73d
00000100: ef05 703e 2385 003e c0e1 9b3e 044a d23d
00000110: c5b1 2d3e 41ab 263e 60df 173e cf40 7c3e
00000120: 8ca6 423e 6648 803e 84e8 f83d 75b2 263e
00000130: 1364 a03e 7ad1 783e 0556 ba3e 7f70 273e
00000140: 4960 b83e fc76 0c3e 6a0f be3e fd06 893e
00000150: acb5 593e d83d fd3d 5d11 643e d9e4 9a3d
00000160: 4902 103e f356 823e 00ac 8f3e aa6f 3f3e
00000170: 6d0b 863e de0f 993e e2f9 083e 2923 693e
00000180: 005d 893e 80cd b23e 4d33 423e bb87 823e
00000190: 8dc2 c33d d0e4 5f3e d533 793e 4090 a93d
000001a0: b52f 6c3e 491d 003e 4d16 613e da36 b43e
000001b0: 9ad6 2e3e f761 ab3e 1e89 963e 33e2 653e
000001c0: c0de 173e 7ea8 0e3e 1f4c 8c3e 51b2 c63e
000001d0: 9050 b43e 962e 893e 5fd9 563e 3c2f 7b3e
000001e0: 2cf3 c33d 05f8 493e 955d 433e 4e0d fc3d
000001f0: e6df 403e 86d0 763e a36b 0a3e 79c4 db3d
00000200: b864 2b3c e4e8 21bc 4ab8 a13d 6a27 58bc
00000210: 2090 d23d aa78 6e3c 9689 043d a573 59bc
00000220: ec2e c43d 7333 123e ac30 0d3e 427e 9fbb
00000230: 12b2 64bd f774 d7bc d46a dcbc b3fa 923d
00000240: 6c42 9cbc 3000 df3c 5810 603d cad9 ae3d
00000250: 5021 b03a 49a6 0d3d 85cb 1c3d c8ac ebbc
00000260: d624 a73d 8dd7 893d 7110 fa3d 9143 383c
00000270: f549 e23d 4248 bf3d 3996 ab3c 1553 853d
00000280: 694c 5dbc e4c1 e63d 34f0 993d ff69 d63c
00000290: b793 f23d efda bc3c ee82 7abc 0c4a a63d
000002a0: 53cc 293c 6185 0a3e e578 01bb 835d a53d
000002b0: 6d6e 3cbd 3c85 093d 3379 813d 12cb 0d3c
000002c0: e503 ee3d e84e 38bc 15db 923d 7a13 fbbc
000002d0: 63ca 8dbc 89af aabd 6be0 763b c0d0 193d
000002e0: b37b 36bc 9617 b63d eba9 1dbd 743e e13d
000002f0: 8c38 a43d b058 b93b 13aa be3c b296 bb3d
00000300: 81cd 98bc 6c13 993d 9393 d6bb 3722 b73d
00000310: 15f4 353d 9a0b 333e b4c0 a93d 7865 df3d
00000320: d6ba 15bd 031e 83bd e1e3 ef3d bb22 c53d
00000330: 2a06 f13d f09d 9a3d d8fa 0b3e f0d8 c93d
00000340: 9bbe 6b3d eb6c 1fbd 847d d63c 2aa6 a03d
00000350: 1bc7 eb3c 4052 053e 6b40 c23d e908 df3d
00000360: 21bb a63d 44fe 7d3d 4fae 68bb a326 353d
00000370: 0fb8 e33d 8fcb e43c b873 8fbc edd5 753d
00000380: 31a4 313d f20d a93d 41e9 813c 4216 4f3d
00000390: 4def 7bbd a971 823b 259e eb3d 4525 d83c
000003a0: 8e9f bb3d fed0 babc 216b d93d f7a3 193e
000003b0: b7a4 a53d 3d88 29bd 6f5f 0c3d 82ef 613b
000003c0: ac33 3b3d 615e ee3d 944d e3bd 5f9b ba3d
000003d0: 725e 143d f603 b8bc 1f2b b5bc f4fc 72bd
000003e0: 987e f73c c81f aab9 fe43 8eba 8319 b13c
000003f0: a8f3 1a3e 4a0b a23d f83b 663d 5a3c 663d

out.1.weight f4 [3, 256]
-0.038382456 -0.055854887 0.009230961 -0.025369894 0.02598908 -0.08771722 -0.045428514 -0.070072256
0.0037016412 -0.013197939 -0.02909923 -0.065856986 0.03778362 0.010947912 -0.07394619 -0.06782518
-0.06587592 0.00018274061 -0.07965151 -0.07741322 -0.08291375 -0.0809851 -0.01905788 0.027646435
0.0041037737 -0.082535 0.023324568 0.018676355 0.0077912915 -0.025550267 -0.0023093699 -0.036952853
0.002439106 -0.039237216 0.0008615429 -0.03373505 0.008914258 -0.06823934 -0.070353284 -0.017208358
-0.060943317 0.013259863 -0.085339986 -0.018719532 -0.083063796 -0.04147266 -0.017803203 0.018616362
-0.035249576 -0.017026877 -0.054393057 -0.05437238 -0.086521395 -0.07845284 -0.08010883 -0.013503251
-0.05634644 -0.0074519184 -0.08210076 0.026231429 0.026310166 -0.06487026 -0.035636134 -0.05033389
-0.047148332 -0.045357116 0.011582669 -0.045600154 0.026567852 -0.079637095 -0.023896607 -0.07406509
-0.0775559 0.017823523 -0.05244399 -0.0617548 -0.048698336 -0.074888356 0.0042611463 -0.04528127
-0.00064882886 -0.048410535 0.020483645 -0.04238899 -0.0748991 0.014304122 -0.07537034 0.016403398
-0.014154922 -0.024483668 0.036943395 -0.069990836 -0.07005818 0.009385139 -0.066952445 0.010584564
-0.030844089 -0.011301908 -0.035597738 -0.017055621 0.0029095463 -0.07297316 -0.04176029 0.032384753
0.005605373 -0.07199256 -0.03331485 0.036932454 -0.07741511 -0.032752756 -0.024605392 0.01863635
-0.0183526 0.031093301 0.03168659 -0.021870933 -0.0731412 -0.07110216 -0.0665467 -0.0025644351
-0.019028174 0.019481467 -0.07146765 0.011759266 -0.0825623 -0.04643976 -0.019644989 0.025214555
0.046356436 -0.11832639 -0.004663488 0.044056755 0.07644469 -0.119640045 -0.12716115 -0.10030469
-0.068955034 -0.0077659446 -0.095159106 -0.19735728 -0.017201314 0.08994458 -0.015214078 -0.21681699
0.06468343 -0.041197497 -0.09005265 -0.18761669 -0.05783295 -0.004445663 0.088886864 0.066850476
-0.061603587 -0.16330776 0.047715887 -0.015851025 0.014383176 0.08095651 -0.22133882 -0.10418539
0.046764307 0.0014984952 -0.0074423198 0.019212589 -0.017264882 0.01480534 0.030736038 0.03129179
-0.09297471 0.023469996 -0.19217029 0.010245932 0.0024584166 -0.013087555 0.03305538 -0.049691826
-0.03098029 -0.08782115 0.061995286 0.039857242 0.036545474 0.043361392 -0.01230426 0.09132623
-0.14454299 0.069671586 0.038654342 0.058507398 -0.06026616 -0.02736601 0.05719671 -0.14281644
0.008473211 -0.016783103 -0.0614638 0.042660087 -0.08686246 -0.016850747 -0.009621286 -0.15291573
-0.19863744 0.045767546 0.034562863 -0.21710303 0.0019965705 -0.015428231 -0.0301273 -0.10358237
-0.067987196 0.036671188 0.03983803 -0.093113 -0.0062410324 0.0072749453 0.0022555522 0.013062427
-0.024871705 -0.06019716 -0.08920741 -0.047475833 -0.15356855 0.041669622 -0.21070592 0.028309792
-0.002383114 0.026448047 -0.05722309 0.032023683 -0.13528101 0.01878496 -0.1422926 -0.12248626
-0.07346728 -0.16963038 -0.07847552 0.044056278 0.004774195 -0.1552697 0.005864467 0.0111847
-0.05331548 0.042954292 0.016926423 -0.12811759 -0.06517801 -0.07212138 0.043672346 0.07212772
0.101689056 -0.00209709 -0.20873126 -0.15952878 -0.027827786 -0.014657857 -0.019073064 -0.16725507
00000000: ec36 1dbd 18c8 64bd 753d 173c 86d4 cfbc
00000010: 0de7 d43c 16a5 b3bd 4013 3abd 0b82 8fbd
00000020: 3c97 723b 2b3c 58bc 8261 eebc 07e0 86bd
00000030: ffc2 1a3d df5e 333c 1a71 97bd eee7 8abd
00000040: f4e9 86bd 0f9e 3f39 5520 a3bd d38a 9ebd
00000050: afce a9bd 84db a5bd 451f 9cbc c77a e23c
00000060: f378 863b 1c08 a9bd 2a13 bf3c 28ff 983c
00000070: 174e ff3b cb4e d1bc cc58 17bb e05b 17bd
00000080: 69d9 1f3b 34b7 20bd 2ad9 613a c42d 0abd
00000090: 1c0d 123c 11c1 8bbd 6215 90bd 8bf8 8cbc
000000a0: b39f 79bd e53f 593c bbc6 aebd b459 99bc
000000b0: 5a1d aabd 3cdf 29bd 06d8 91bc 5781 983c
000000c0: dc61 10bd f37b 8bbc 41cb 5ebd 93b5 5ebd
000000d0: 2132 b1bd e2ab a0bd 1910 a4bd bd3c 5dbc
000000e0: 86cb 66bd 392f f4bb 7124 a8bd 4be3 d63c
000000f0: 6b88 d73c b3da 84bd 32f7 11bd e92a 4ebd
00000100: 9c1e 41bd 62c8 39bd 3cc5 3d3c 3ac7 3abd
00000110: d3a4 d93c c618 a3bd d1c2 c3bc 70af 97bd
00000120: a1d5 9ebd a302 923c 82cf 56bd 9af2 7cbd
00000130: e877 47bd 115f 99bd 16a1 8b3b da78 39bd
00000140: 2b16 2aba 204a 46bd 51cd a73c 14a0 2dbd
00000150: b364 99bd d65b 6a3c c45b 9abd 6b60 863c
00000160: 0cea 67bc f991 c8bc f551 173d 5b57 8fbd
00000170: aa7a 8fbd 20c4 193c 5d1e 89bd e16a 2d3c
00000180: beac fcbc a32b 39bc efce 11bd 3bb8 8bbc
00000190: 16ae 3e3b f472 95bd d60c 2bbd e0a5 043d
000001a0: 47ad b73b d670 93bd 2775 08bd 7c46 173d
000001b0: d08b 9ebd c127 06bd 3f91 c9bc 42ab 983c
000001c0: 3158 96bc 61b7 fe3c ccc9 013d ac2a b3bc
000001d0: 0ecb 95bd 029e 91bd a349 88bd 1510 28bb
000001e0: f9e0 9bbc 9997 9f3c a25d 92bd f0a9 403c
000001f0: 6c16 a9bd 9e37 3ebd 87ee a0bc c18e ce3c
00000200: 3fe0 3d3d 1b55 f2bd 2cd0 98bb db74 343d
00000210: 098f 9c3d d705 f5bd 8836 02be 8c6c cdbd
00000220: 4c38 8dbd 7779 febb c7e2 c2bd 0718 4abe
00000230: c5e9 8cbc dd34 b83d 7844 79bc 4605 5ebe
00000240: bf78 843d b5be 28bd 866d b8bd 971e 40be
00000250: 3ee2 6cbd edac 91bb 510a b63d e7e8 883d
00000260: 0b54 7cbd 263a 27be bc71 433d 02da 81bc
00000270: 6aa7 6b3c 87cc a53d a5a6 62be 265f d5bd
00000280: ee8b 3f3d 2869 c43a b4de f3bb b863 9d3c
00000290: 156f 8dbc 1992 723c 25ca fb3c d22b 003d
000002a0: 8669 bebd 2644 c03c 4ac8 44be 8ede 273c
000002b0: 631d 213b 2f6d 56bc 1465 073d a889 4bbd
000002c0: 61ca fdbc 93db b3bd c5ee 7d3d 5941 233d
000002d0: b5b0 153d b79b 313d cf97 49bc 3f09 bb3d
000002e0: 1403 14be faaf 8e3d 0454 1e3d 74a5 6f3d
000002f0: a6d9 76bd af2e e0bc 1947 6a3d 793e 12be
00000300: 39d3 0a3c b87c 89bc 77c1 7bbd 58bc 2e3d
00000310: f2e4 b1bd 940a 8abc 99a2 1dbc f195 1cbe
00000320: 9d67 4bbe c076 3b3d ca91 0d3d 4250 5ebe
00000330: e5d8 023b b1c6 7cbc 87cd f6bc fe22 d4bd
00000340: df3c 8bbd 8734 163d 342d 233d 07b2 bebd
00000350: 9381 ccbb aa62 ee3b e3d1 133b ca03 563c
00000360: bfbf cbbc 4c91 76bd 60b2 b6bd 0576 42bd
00000370: 1341 1dbe c4ad 2a3d 4bc3 57be f0e9 e73c
00000380: 052e 1cbb 93a9 d83c c262 6abd 442b 033d
00000390: 1b87 0abe ebe2 993c 27b5 11be 14da fabd
000003a0: 0376 96bd 96b3 2dbe c6b7 a0bd 5b74 343d
000003b0: da70 9c3b 05ff 1ebe b72a c03b 0840 373c
000003c0: 5561 5abd d7f0 2f3d 48a9 8a3c 4231 03be
000003d0: 0c7c 85bd 60b4 93bd c6e1 323d b3b7 933d
000003e0: 5a42 d03d 556f 09bb a6bd 55be 835b 23be
000003f0: 19f7 e3bc 8227 70bc 1d3f 9cbc ea44 2bbe

out.1.bias f4 [3]
-0.012390283 -0.005783609 -0.029449876
00000000: 9d00 4bbc 6e84 bdbb de40 f1bc

hidden_mean.0.weight f4 [128, 128]
-0.17755377 0.21977329 -0.17212777 0.22576578 -0.21104792 0.102749206 0.26546595 0.19800848
-0.089767046 -0.18624112 -0.22500013 0.22267476 0.22627804 0.1849041 -0.18521953 -0.26038554
-0.19284521 0.16675511 -0.07402233 -0.18860349 -0.1674391 0.09354745 0.12577471 -0.11550148
-0.20650375 0.13158956 -0.075669624 0.18385383 0.1272459 -0.13901712 0.23933487 0.12358388
0.17969157 0.09273184 -0.056580804 0.24985304 0.1351415 0.1556792 0.13485323 0.18528087
0.1873302 0.17019886 -0.29317018 0.16751602 0.19101383 0.17681582 -0.12932649 -0.17901316
-0.17815135 -0.15867169 0.16003726 -0.24513465 0.08222313 0.16200836 -0.0783667 -0.1955352
0.19439025 0.09278131 -0.21280235 -0.20563819 0.08693947 0.17653748 -0.1235169 0.16887328
0.17827927 -0.19130099 -0.16162206 0.0688189 0.15588553 0.051342204 0.13215722 -0.20189196
-0.123626396 -0.20690314 -0.21920203 -0.2063048 -0.12578066 -0.14715819 0.132209 0.22681119
-0.24689408 -0.1736464 -0.2031914 0.046792127 0.1584702 -0.16768485 0.20610005 0.22397186
0.21801527 0.14102675 -0.059297305 -0.07761238 0.122643635 -0.1758284 -0.21785145 0.16677886
0.14684601 0.2070872 -0.22330329 -0.071637064 0.17210545 0.08360047 -0.13528216 -0.09619691
-0.051071577 0.05706946 0.12067403 -0.22085565 -0.08610381 -0.25079215 0.071512036 0.15738009
0.15598682 0.15648928 -0.2981613 -0.24238423 0.26509708 0.08802635 -0.1304231 -0.14917558
-0.046023477 -0.14090294 0.09879123 0.10799484 -0.14660536 -0.20070353 0.12336284 0.072834976
-0.15816656 0.16979536 -0.21133652 0.25976545 -0.20984341 0.08294936 0.24080154 0.10659349
-0.027419755 -0.15173094 -0.19126086 0.08728861 0.12975489 0.10226917 -0.13890183 -0.24757932
-0.05335458 0.1737287 -0.05934512 -0.10760652 -0.15839785 0.21728538 0.2229121 -0.052861083
-0.1961141 0.26339504 -0.10111081 0.15586033 0.16278969 -0.19426215 0.060023002 0.12043784
0.18098253 0.21359994 -0.20063657 0.16103788 0.15441005 0.12182901 0.124586485 0.18183988
0.15326355 0.1978163 -0.1717085 0.15262964 0.15529396 0.16941279 -0.10801717 -0.20284005
-0.17272621 -0.19558725 0.07613814 -0.09292724 0.08570385 0.18977134 -0.011969806 -0.21976843
0.1989123 0.19058493 -0.21960266 -0.13641377 0.12357569 0.16971767 -0.13553795 0.11418934
0.21153201 -0.23602869 -0.17490657 0.15256262 0.06691238 -0.010464003 0.22523116 -0.26602718
-0.27851856 -0.1437312 -0.20128962 -0.04294705 -0.15433085 -0.20820597 0.14019686 0.08092898
-0.24325633 -0.13649185 -0.19841395 0.049711518 0.20903566 -0.11442009 0.24313714 0.1514095
0.22982992 0.09072726 -0.21590434 -0.16971739 0.06718449 -0.1423907 -0.08257601 0.07994841
0.08618735 0.20911892 -0.09639125 -0.14523187 0.10104669 0.06589896 -0.15560934 -0.18212834
-0.19398117 0.05181289 0.18780395 -0.21401449 -0.19548883 -0.18851788 0.12663844 0.16545528
0.18831776 0.052090853 -0.31753254 -0.23465532 0.22149786 0.11817975 -0.099842064 -0.12821507
-0.102099456 -0.047727 0.098971725 0.18788004 -0.118492484 -0.100827664 0.07394805 0.14087169
00000000: a8d0 35be 400c 613e 4342 30be 252f 673e
00000010: f21c 58be 2d6e d23d 27eb 873e bcc2 4a3e
00000020: c9d7 b7bd feb5 3ebe 6f66 66be da04 643e
00000030: 6eb5 673e 8057 3d3e 30aa 3dbe 4151 85be
00000040: 3779 45be dac1 2a3e 0599 97bd 4621 41be
00000050: 2875 2bbe ce95 bf3d 16cb 003e 0a8c ecbd
00000060: b875 53be 6abf 063e adf8 9abd 2e44 3c3e
00000070: c04c 023e 815a 0ebe 3314 753e 8c19 fd3d
00000080: 1101 383e 31ea bd3d 46c1 67bd 7ad9 7f3e
00000090: 8962 0a3e 5e6a 1f3e f716 0a3e 45ba 3d3e
000000a0: 7dd3 3f3e 9c48 2e3e 671a 96be 5289 2b3e
000000b0: 2199 433e 350f 353e 2a6e 04be 3a4f 37be
000000c0: 4f6d 36be d57a 22be cfe0 233e 9404 7bbe
000000d0: 9a64 a83d 85e5 253e b87e a0bd 613a 48be
000000e0: 3d0e 473e 2104 be3d dce8 59be d192 52be
000000f0: 520d b23d 3ec6 343e 6ef6 fcbd 1eed 2c3e
00000100: d78e 363e 68e4 43be 4180 25be ecf0 8c3d
00000110: 75a0 1f3e 344c 523d 3954 073e c4bc 4ebe
00000120: d62f fdbd 6bde 53be 7f76 60be 9141 53be
00000130: a5cc 00be a3b0 16be cc61 073e 3141 683e
00000140: cdd1 7cbe 5dd0 31be 6811 50be 1aa9 3f3d
00000150: 0346 223e 94b5 2bbe e40b 533e e158 653e
00000160: 653f 5f3e 5169 103e bbe1 72bd 3df3 9ebd
00000170: 962c fb3d 5c0c 34be 7314 5fbe 14c8 2a3e
00000180: cd5e 163e ab0e 543e 9ea9 64be 74b6 92bd
00000190: 693c 303e b936 ab3d 6887 0abe e302 c5bd
000001a0: 6e30 51bd abc1 693d f223 f73d fc27 62be
000001b0: 3257 b0bd d467 80be e774 923d 3f28 213e
000001c0: 02bb 1f3e ba3e 203e 99a8 98be 9233 78be
000001d0: ceba 873e 2947 b43d a28d 05be 7cc1 18be
000001e0: 1d83 3cbd dc48 10be 0e53 ca3d 662c dd3d
000001f0: b71f 16be 3a85 4dbe a8a5 fc3d 812a 953d
00000200: 6af6 21be d6de 2d3e 9a68 58be faff 843e
00000210: 31e1 56be 5be1 a93d ae94 763e b04d da3d
00000220: 659f e0bc 5b5f 1bbe e3d9 43be 5fc4 b23d
00000230: 77de 043e 8072 d13d 483c 0ebe 6f85 7dbe
00000240: 558a 5abd f0e5 313e de13 73bd cf60 dcbd
00000250: 0c33 22be 0f80 5e3e 1243 643e dd84 58bd
00000260: 22d2 48be b7db 863e 2f13 cfbd da99 1f3e
00000270: 57b2 263e a8ec 46be aeda 753d 1da8 f63d
00000280: 7c53 393e f1b9 5a3e ac73 4dbe 1de7 243e
00000290: ab1d 1e3e 7d81 f93d 3327 ff3d 3c34 3a3e
000002a0: 1ff1 1c3e 5b90 4a3e 5ad4 2fbe f24a 1c3e
000002b0: 6105 1f3e 8c7a 2d3e 1b38 ddbd 4db5 4fbe
000002c0: 24df 30be 0648 48be 50ee 9b3d a350 bebd
000002d0: 8085 af3d 6b53 423e 011d 44bc fa0a 61be
000002e0: aaaf 4b3e b228 433e 85df 60be 0db0 0bbe
000002f0: 4015 fd3d 78ca 2d3e 76ca 0abe 1adc e93d
00000300: d99b 583e 81b1 71be b51a 33be 6039 1c3e
00000310: 5c09 893d 3671 2bbc ffa2 663e b734 88be
00000320: fc99 8ebe 462e 13be de1e 4ebe 3fe9 2fbd
00000330: e808 1ebe f233 55be c48f 0f3e 18be a53d
00000340: 3018 79be 85c4 0bbe 072d 4bbe 4e9e 4b3d
00000350: 720d 563e 1555 eabd f1f8 783e 180b 1b3e
00000360: 8958 6b3e 37cf b93d 0716 5dbe 65ca 2dbe
00000370: 0698 893d dece 11be 9c1d a9bd febb a33d
00000380: fe82 b03d 4523 563e c768 c5bd aab7 14be
00000390: 91f1 ce3d 09f6 863d 0e58 1fbe da7f 3abe
000003a0: 00a3 46be c139 543d ae4f 403e 9d26 5bbe
000003b0: 392e 48be d50a 41be 82ad 013e 1c6d 293e
000003c0: 5fd6 403e 385d 553d a093 a2be 7c49 70be
000003d0: 56d0 623e 3a08 f23d ff79 ccbd d04a 03be
000003e0: 8519 d1bd 637d 43bd b0b1 ca3d a063 403e
000003f0: 30ac f2bd bc7e cebd 1372 973d ab40 103e

hidden_mean.0.bias f4 [128]
-0.076726735 -0.10870405 -0.1980075 -0.12842181 -0.1212066 -0.11531438 -0.15872741 -0.16099061
-0.1000815 -0.09251195 -0.18452601 -0.11841638 -0.057788186 -0.16219908 -0.10522913 -0.1269527
-0.07919088 -0.22036561 -0.06482609 -0.1092842 -0.14660576 -0.09738988 -0.15065973 -0.07715999
-0.207189 -0.11623569 -0.16247323 -0.1632015 -0.18143052 -0.115315646 -0.07872259 -0.16919583
-0.17558227 -0.16713032 -0.11798787 -0.23033568 -0.06435404 -0.16425492 -0.051266406 -0.16810666
-0.19692747 -0.06909551 -0.19904533 -0.0965875 -0.11107745 -0.14806575 -0.06885475 -0.10553174
-0.12077385 -0.2278071 -0.17888351 -0.080390714 -0.14295048 -0.13581859 -0.13297077 -0.2323163
-0.19038391 -0.07477143 -0.15976878 -0.103072435 -0.06717143 -0.053049862 -0.109328985 -0.08740201
-0.18735467 -0.21168832 -0.14083272 -0.08422596 -0.1101405 -0.1911409 -0.21492083 -0.1857055
-0.18123181 -0.21371253 -0.1013631 -0.17539431 -0.13105562 -0.19737454 -0.24114297 -0.23292123
-0.13685268 -0.12720998 -0.13280553 -0.11359259 -0.22226858 -0.13050331 -0.18416779 -0.19631262
-0.2267036 -0.15564775 -0.12847036 -0.097835265 -0.1026736 -0.08131411 -0.20409581 -0.21021748
-0.20093223 -0.14776279 -0.115644 -0.1423069 -0.22204995 -0.12133145 -0.16446777 -0.14435995
-0.17396945 -0.07580671 -0.20753871 -0.15195645 -0.076983176 -0.080535226 -0.20899811 -0.18783206
-0.052627493 -0.21698663 -0.24689966 -0.21952714 -0.15869655 -0.14224745 -0.10543069 -0.16194955
-0.06840241 -0.15116835 -0.11682211 -0.16281271 -0.13978076 -0.12023866 -0.06887818 -0.1858251
00000000: e822 9dbd 3ba0 debd 7ac2 4abe 0281 03be
00000010: 2a3b f8bd f229 ecbd 7089 22be b9da 24be
00000020: 88f7 ccbd e876 bdbd 63f4 3cbe 4984 f2bd
00000030: 4eb3 6cbd 8417 26be 5f82 d7bd e3ff 01be
00000040: d42e a2bd 86a7 61be 8bc3 84bd 65d0 dfbd
00000050: d21f 16be 5874 c7bd 8b46 1abe 0f06 9ebd
00000060: 5a29 54be fa0c eebd 625f 26be 4b1e 27be
00000070: ecc8 39be 9c2a ecbd 4f39 a1bd ac41 2dbe
00000080: d7cb 33be 3624 2bbe a0a3 f1bd 1edd 6bbe
00000090: 0dcc 83bd 7132 28be b9fc 51bd 2724 2cbe
000000a0: 5ba7 49be f281 8dbd 8ad2 4bbe abcf c5bd
000000b0: 937c e3bd 8c9e 17be b803 8dbd 0621 d8bd
000000c0: 4858 f7bd 4446 69be 3d2d 37be e3a3 a4bd
000000d0: 9c61 12be 0714 0bbe 7d29 08be 53e4 6dbe
000000e0: 00f4 42be c321 99bd 6d9a 23be a417 d3bd
000000f0: 2d91 89bd d04a 59bd e0e7 dfbd d3ff b2bd
00000100: e7d9 3fbe d3c4 58be 7436 10be a97e acbd
00000110: 5891 e1bd 71ba 43be 3514 5cbe 9529 3ebe
00000120: d594 39be 75d7 5abe 7597 cfbd 919a 33be
00000130: 7233 06be 8d1c 4abe 2fee 76be e782 6ebe
00000140: 1c23 0cbe 5543 02be 2cfe 07be 3ba3 e8bd
00000150: 609a 63be a9a2 05be 7b96 3cbe 2d06 49be
00000160: fd24 68be 2062 1fbe bc8d 03be db5d c8bd
00000170: 8946 d2bd 0388 a6bd 7efe 50be 4043 57be
00000180: 2ec1 4dbe 214f 17be c3d6 ecbd e6b8 11be
00000190: 1061 63be a07c f8bd 3d6a 28be 18d3 13be
000001a0: 0c25 32be 8c40 9bbd 0785 54be 799a 1bbe
000001b0: 5ba9 9dbd a7ef a4bd 9a03 56be 0c57 40be
000001c0: ed8f 57bd be31 5ebe 44d3 7cbe b9cb 60be
000001d0: 5981 22be 51a9 11be 0cec d7bd 1ad6 25be
000001e0: 9016 8cbd e0cb 1abe 6e40 efbd 60b8 26be
000001f0: b022 0fbe b03f f6bd 0110 8dbd ef48 3ebe

hidden_std.0.weight f4 [128, 128]
-0.010707956 -0.01884565 0.041766528 -0.07313011 -0.028426804 0.011396328 0.018284243 0.0885785
-0.037536 -0.09699786 0.0405345 0.07635298 0.026997464 -0.028001422 -0.1055996 0.025239581
-0.10522128 -0.06294041 -0.0020983203 0.04286337 0.037077356 -0.033063453 -0.052090354 0.06534004
-0.039981645 -0.06780547 -0.07020844 0.011757228 0.023599196 -0.0010082584 0.03190429 -0.04693478
-0.04434559 -0.04377289 0.0064588073 -0.004235981 -0.019032028 0.079390764 0.029371055 -0.02333239
0.02471073 0.05943718 -0.06155231 0.03947841 -0.059011757 0.08362807 0.010810865 -0.009696228
0.049120538 -0.03340806 0.058727264 0.010838375 -0.040643517 0.025513962 -0.023488158 0.06693984
0.037645016 0.051544875 0.045491584 0.06992788 -0.031993758 -0.005770197 -0.034607995 0.048343685
-0.0039777914 -0.02507319 0.0077020386 0.015158843 0.03684148 -0.03416182 0.043154422 -0.036310963
-0.025173277 -0.04245693 0.034907874 -0.005043826 0.0034884508 -0.08542512 0.07562868 0.0039082356
0.036413856 0.019990446 0.05949807 0.010152806 0.033584077 -0.057404514 0.011750692 0.03372694
-0.056578487 -0.00080881914 0.059085984 -0.02316374 0.097056985 0.050519966 -0.037763927 0.05233039
0.010912826 0.036942165 0.036332134 -0.07653304 -0.003275129 0.039517082 0.049558535 0.038731832
-0.06653913 0.08180566 0.10048211 0.021558251 0.026400864 0.044297487 0.07322653 0.061745413
-0.02906538 -0.026666032 0.05996881 0.009511507 0.01749082 0.07626182 0.0259472 0.057683002
0.055798 0.01915895 0.052270338 0.05342952 0.02157843 -0.03727394 -0.010748175 0.06800447
0.066403575 0.07230455 0.0342577 -0.038738675 -0.043672793 0.086652964 -0.0299419 0.008457818
-0.023542823 0.038418952 -0.0029985907 -0.02914913 -0.012432771 0.07841053 0.022629727 0.07629585
0.012278715 -0.04614451 0.077238664 0.044023134 -0.06947635 -0.049690776 0.07061937 0.04283152
-0.01826613 0.0769941 -0.038095493 0.0029406897 -0.05650621 -0.07573021 0.021037621 -0.009019545
0.019266432 0.012212991 0.060303573 -0.05878757 0.0803766 -0.0041821236 -0.015297424 -0.07921446
-0.077967055 -0.06432556 0.035810437 -0.012683494 0.064071536 0.026568988 -0.07065386 -0.079399996
-0.07602664 -0.0763433 0.07431962 -0.068017796 -0.026931116 0.071672805 0.0037365402 -0.09347301
0.044383306 0.008245964 -0.055659533 -0.064812884 0.06964605 0.0738135 -0.067825526 0.004053575
0.013663818 -0.060127594 -0.013895132 0.09065994 -0.07870877 0.07650078 -0.05475177 0.07411899
0.027715456 -0.019919137 0.002629468 -0.050134704 0.01794272 -0.07795575 -0.03745515 0.06522713
-0.072484456 0.025673077 -0.045239724 -0.019993758 0.004135043 -0.021826204 -0.069051094 -0.025010923
-0.05370538 0.07348139 0.035322532 0.05590211 -0.003323153 -0.0533703 -0.07119758 -0.024102943
0.061979968 0.039472442 0.0072937473 -0.08569839 -0.042527016 -0.07060082 -0.051871296 -0.070983976
-0.065001436 -0.053126432 0.09724307 -0.027864613 0.072341785 -0.042865124 0.0026980152 0.068628944
0.059407804 -0.0720708 0.06725079 -0.08364706 -0.07365671 -0.06537396 -0.059386242 -0.032053094
0.08396765 0.0010859597 0.051070534 -0.081478916 -0.077437334 -0.03632773 0.07189974 0.05972133
00000000: 6c70 2fbc 3162 9abc 6113 2b3d 3dc5 95bd
00000010: 54df e8bc aab7 3a3c d6c8 953c a568 b53d
00000020: 59bf 19bd d0a6 c6bd 8107 263d f45e 9c3d
00000030: c929 dd3c 3d63 e5bc 9a44 d8bd 3dc3 ce3c
00000040: 417e d7bd e7e6 80bd f983 09bb 8091 2f3d
00000050: 6dde 173d 8b6d 07bd b25c 55bd 00d1 853d
00000060: cbc3 23bd 98dd 8abd 71c9 8fbd 63a1 403c
00000070: 1a53 c13c 8a27 84ba 13ae 023d af3e 40bd
00000080: b9a3 35bd 344b 33bd 67a4 d33b fccd 8abb
00000090: 0ee9 9bbc a097 a23d 919b f03c 9123 bfbc
000000a0: 286e ca3c 6774 733d 461e 7cbd 1db4 213d
000000b0: 50b6 71bd 3245 ab3d 0e20 313c eedc 1ebc
000000c0: 9e32 493d e4d6 08bd 008c 703d 7193 313c
000000d0: d179 26bd a802 d13c 3d6a c0bc c117 893d
000000e0: a931 1a3d b820 533d 6255 3a3d 5936 8f3d
000000f0: e30b 03bd ec13 bdbb 1dc1 0dbd 0704 463d
00000100: 2258 82bb 4a66 cdbc 6261 fc3b cc5c 783c
00000110: 17e7 163d 44ed 0bbd b1c2 303d ceba 14bd
00000120: 3038 cebc 51e7 2dbd 8ffb 0e3d ae46 a5bb
00000130: 7e9e 643b 5ef3 aebd 36e3 9a3d a810 803b
00000140: b226 153d 01c3 a33c 40b4 733d f457 263c
00000150: 758f 093d ff20 6bbd f985 403c 4325 0a3d
00000160: d8be 67bd ef06 54ba 2504 723d e2c1 bdbc
00000170: d0c5 c63d 06ee 4e3d 59ae 1abd 6458 563d
00000180: b6cb 323c ab50 173d 01d1 143d 5bbd 9cbd
00000190: 8ca3 56bb aadc 213d e4fd 4a3d 45a5 1e3d
000001a0: ab45 88bd ba89 a73d 91c9 cd3d ee9a b03c
000001b0: a046 d83c 4871 353d caf7 953d c2e8 7c3d
000001c0: 851a eebc b972 dabc dba1 753d 27d6 1b3c
000001d0: e848 8f3c 282f 9c3d 398f d43c 0345 6c3d
000001e0: 728c 643d 3bf3 9c3c 6c19 563d ead8 5a3d
000001f0: 3fc5 b03c 8fac 18bd 1d19 30bc ed45 8b3d
00000200: 99fe 873d 6814 943d cd51 0c3d 72ac 1ebd
00000210: 3ee2 32bd 1c77 b13d b748 f5bc a992 0a3c
00000220: e1dc c0bc 315d 1d3d 0184 44bb 28ca eebc
00000230: d2b2 4bbc b395 a03d fa61 b93c 0041 9c3d
00000240: aa2c 493c 0702 3dbd 4e2f 9e3d 9a51 343d
00000250: 9e49 8ebd 8e88 4bbd e3a0 903d 1b70 2f3d
00000260: daa2 95bc 15af 9d3d 050a 1cbd 96b8 403b
00000270: 0e73 67bd 7118 9bbd 1757 ac3c b7c6 13bc
00000280: a3d4 9d3c ff18 483c e100 773d 3ccb 70bd
00000290: 7d9c a43d 320a 89bb 0ca2 7abc 313b a2bd
000002a0: 31ad 9fbd 1fbd 83bd f7ad 123d 6ece 4fbc
000002b0: f037 833d 35a7 d93c f9b2 90bd 779c a2bd
000002c0: dbb3 9bbd e059 9cbd e334 983d ea4c 8bbd
000002d0: a59e dcbc 31c9 923d bee0 743b c76e bfbd
000002e0: 45cb 353d 141a 073c 40fb 63bd 9ebc 84bd
000002f0: 97a2 8e3d 882b 973d 1ce8 8abd dad3 843b
00000300: 35de 5f3c 5a48 76bd 68a8 63bc ebab b93d
00000310: 1032 a1bd 71ac 9c3d 6443 60bd b2cb 973d
00000320: 860b e33c 752d a3bc 2753 2c3b 0c5a 4dbd
00000330: 9cfc 923c 44a7 9fbd 926a 19bd cd95 853d
00000340: bb72 94bd 5850 d23c 4a4d 39bd f3c9 a3bc
00000350: 417f 873b decc b2bc a96a 8dbd b5e3 ccbc
00000360: 2cfa 5bbd 697d 963d 5cae 103d 9cf9 643d
00000370: 41c9 59bb d19a 5abd 09d0 91bd 8973 c5bc
00000380: b5de 7d3d dbad 213d 6300 ef3b a382 afbd
00000390: cf30 2ebd 2a97 90bd ff76 54bd 0c60 91bd
000003a0: 791f 85bd 1a9b 59bd 6027 c73d 5444 e4bc
000003b0: ee27 943d 5793 2fbd 2fd1 303b 558d 8c3d
000003c0: 9955 733d db99 93bd c8ba 893d 264f abbd
000003d0: 54d9 96bd c8e2 85bd fd3e 73bd 1b4a 03bd
000003e0: 3bf7 ab3d c356 8e3a 562f 513d 6bde a6bd
000003f0: 7797 9ebd 63cc 14bd 2c40 933d 5a9e 743d

hidden_std.0.bias f4 [128]
-0.0034121564 -0.017220495 -0.08788394 -0.08937714 -0.08565989 0.009426013 -0.07689018 -0.03905766
0.049550503 -0.052887663 -0.022426603 -0.06565402 0.044699866 0.05159103 -0.09842918 0.0403024
-0.0730292 -0.07681271 -0.06571571 -0.0041519403 -0.039812405 0.024360074 -0.021311324 0.030150484
0.03767782 0.022973115 0.04340234 -0.06443708 0.03114294 -0.035970844 -0.045777213 -0.095298454
-0.04438252 0.04353927 -0.0528542 0.03749479 -0.023659743 -0.05501047 -0.04649608 -0.035685584
-0.014365673 -0.047416296 0.04716033 -0.032825757 -0.080051996 -0.05911046 -0.023080483 -0.050032344
-0.0387181 -0.043192755 0.02198571 0.043646112 0.009705211 -0.08290399 0.03329791 -0.0295507
-0.042767167 -0.08675571 -0.024364375 0.026043326 0.0116436025 -0.043179724 -0.04639096 -0.020682633
0.031660333 0.017006923 -0.046793032 -0.08246359 -0.107332036 -0.056968916 0.012064393 0.04041259
0.0039963606 -0.07430287 0.0064044725 -0.06533105 -0.051507443 -0.03270735 0.014847154 -0.0050063063
-0.09765856 -0.09056816 -0.039984886 -0.021003421 -0.09636199 -0.09290172 -0.0032341452 -0.06413444
0.013132639 0.027866598 -0.08809408 0.0052750246 -0.015140712 -0.10517383 -0.08302534 -0.0023874617
0.025459137 -0.044113275 -0.022143705 0.034449693 -0.07225465 -0.04206155 -0.09216045 0.0065660914
-0.032928813 -0.02872674 -0.04181691 -0.034400206 0.02571842 -0.076965354 -0.054260205 -0.06751408
0.04364265 -0.050160263 0.018975979 -0.07726749 -0.09313831 0.04039072 -0.07714363 -0.0702506
-0.036703203 0.01783245 -0.07053421 -0.018651845 -0.0698279 -0.038063515 -0.058869712 -0.09931491
00000000: 7c9e 5fbb ff11 8dbc 7ffc b3bd 5d0b b7bd
00000010: 746e afbd 906f 1a3c 9978 9dbd edfa 1fbd
00000020: 78f5 4a3d bca0 58bd ffb7 b7bc 9d75 86bd
00000030: 3517 373d 1e51 533d 3d95 c9bd 2114 253d
00000040: 5590 95bd fb4f 9dbd f595 86bd 000d 88bb
00000050: 5512 23bd c78e c73c 1695 aebc 26fe f63c
00000060: 0f54 1a3d 1d32 bc3c a7c6 313d 96f7 83bd
00000070: 7b1f ff3c 2a56 13bd e380 3bbd d62b c3bd
00000080: 72ca 35bd 3c56 323d a57d 58bd 2394 193d
00000090: 14d2 c1bc a952 61bd ac72 3ebd 0c2b 12bd
000000a0: 005e 6bbc 9737 42bd 312b 413d 4d74 06bd
000000b0: 4df2 a3bd cf1d 72bd 4813 bdbc b7ee 4cbd
000000c0: df96 1ebd e3ea 30bd 601b b43c 44c6 323d
000000d0: 9b02 1f3c 91c9 a9bd 6463 083d 4f14 f2bc
000000e0: a02c 2fbd faac b1bd cc97 c7bc d058 d53c
000000f0: cfc4 3e3c 39dd 30bd 7304 3ebd a06e a9bc
00000100: 44ae 013d 1a52 8b3c 0daa 3fbd ace2 a8bd
00000110: e6d0 dbbd 3d58 69bd bba9 453c ac87 253d
00000120: e7f3 823b 1a2c 98bd 9cdc d13b 49cc 85bd
00000130: 78f9 52bd 24f8 05bd 7a41 733c f10b a4bb
00000140: 3601 c8bd cd7b b9bd 31c7 23bd 5e0f acbc
00000150: 6f59 c5bd 4243 bebd f4f3 53bb eb58 83bd
00000160: 482a 573c 7e48 e43c ab6a b4bd 1dda ac3b
00000170: c010 78bc 6165 d7bd 3109 aabd f676 1cbb
00000180: ae8f d03c 1fb0 34bd b766 b5bc 1f1b 0d3d
00000190: 3ffa 93bd bb48 2cbd 9ebe bcbd 5e28 d73b
000001a0: 5de0 06bd 5754 ebbc 3548 2bbd 3be7 0cbd
000001b0: 70af d23c 03a0 9dbd f33f 5ebd d244 8abd
000001c0: a3c2 323d d974 4dbd 8373 9b3c 6b3e 9ebd
000001d0: 4cbf bebd bd70 253d 7bfd 9dbd 8cdf 8fbd
000001e0: 1956 16bd 5c15 923c 3d74 90bd c1cb 98bc
000001f0: ee01 8fbd 7de8 1bbd 5e21 71bd 9e65 cbbd
